ch03/03_understanding-buffers/model.pth (torch, 2255 bytes, 3 tensors)

W_query.weight f4 [2, 3]
0	0xbe711478	-0.23542964
1	0x3c9caaef	0.019124476
2	0xbe92d05d	-0.28674594
3	0x3e5ef3ba	0.21772662
4	0xbefbdecd	-0.4919342
5	0x3ed8b0b2	0.42322308

W_key.weight f4 [2, 3]
0	0xbed6db3d	-0.4196414
1	0xbeeb045d	-0.45901766
2	0xbebac9b6	-0.36482018
3	0x3e85e078	0.2614782
4	0xbe5a723c	-0.2133264
5	0x3e5d3cc8	0.21605217

W_value.weight f4 [2, 3]
0	0xbefae322	-0.49001414
1	0xbeb3597b	-0.35029206
2	0xbe5913b2	-0.2119892
3	0xbde85e18	-0.11346072
4	0xbee18145	-0.44043937
5	0x3ec18eef	0.37804362
